…
213/213 [==============================] - 7s 33ms/step - loss: 0.0969 - cat_acc: 0.9635 - val_loss: 0.3632 - val_cat_acc: 0.9167
Epoch 32/100
210/213 [============================>.] - ETA: 0s - loss: 0.0866 - cat_acc: 0.9664Restoring model weights from the end of the best epoch.
213/213 [==============================] - 7s 34ms/step - loss: 0.0873 - cat_acc: 0.9661 - val_loss: 0.3352 - val_cat_acc: 0.9167
Epoch 00032: early stopping
Model: "volcanet-cnn"
_________________________________________________________________
Layer (type)                 Output Shape              Param #   
=================================================================
lambda (Lambda)              (32, 44, 44, 1)           0         
_________________________________________________________________
conv2d (Conv2D)              (32, 42, 42, 16)          160       
_________________________________________________________________
activation (Activation)      (32, 42, 42, 16)          0         
_________________________________________________________________
max_pooling2d (MaxPooling2D) (32, 21, 21, 16)          0         
_________________________________________________________________
conv2d_1 (Conv2D)            (32, 19, 19, 32)          4640      
_________________________________________________________________
activation_1 (Activation)    (32, 19, 19, 32)          0         
_________________________________________________________________
max_pooling2d_1 (MaxPooling2 (32, 9, 9, 32)            0         
_________________________________________________________________
flatten (Flatten)            (32, 2592)                0         
_________________________________________________________________
dense (Dense)                (32, 64)                  165952    
_________________________________________________________________
activation_2 (Activation)    (32, 64)                  0         
_________________________________________________________________
dense_1 (Dense)              (32, 32)                  2080      
_________________________________________________________________
activation_3 (Activation)    (32, 32)                  0         
_________________________________________________________________
output (Dense)               (32, 5)                   165       
_________________________________________________________________
activation_4 (Activation)    (32, 5)                   0         
=================================================================
Total params: 172,997
Trainable params: 172,997
Non-trainable params: 0
_________________________________________________________________
None
85/85 [==============================] - 1s 17ms/step - loss: 0.2512 - cat_acc: 0.9180
test: 0.9180147051811218
218/218 [==============================] - 4s 20ms/step - loss: 0.2027 - cat_acc: 0.9286
…
