…
209/209 [==============================] - 9s 43ms/step - loss: 0.0428 - cat_acc: 0.9870 - val_loss: 0.5721 - val_cat_acc: 0.9187
Epoch 43/100
207/209 [============================>.] - ETA: 0s - loss: 0.0170 - cat_acc: 0.9967Restoring model weights from the end of the best epoch.
209/209 [==============================] - 9s 43ms/step - loss: 0.0169 - cat_acc: 0.9967 - val_loss: 0.6020 - val_cat_acc: 0.9156
Epoch 00043: early stopping
Model: "volcanet-cnn"
_________________________________________________________________
Layer (type)                 Output Shape              Param #   
=================================================================
lambda (Lambda)              (32, 44, 44, 1)           0         
_________________________________________________________________
conv2d (Conv2D)              (32, 42, 42, 16)          160       
_________________________________________________________________
activation (Activation)      (32, 42, 42, 16)          0         
_________________________________________________________________
max_pooling2d (MaxPooling2D) (32, 21, 21, 16)          0         
_________________________________________________________________
conv2d_1 (Conv2D)            (32, 19, 19, 32)          4640      
_________________________________________________________________
activation_1 (Activation)    (32, 19, 19, 32)          0         
_________________________________________________________________
max_pooling2d_1 (MaxPooling2 (32, 9, 9, 32)            0         
_________________________________________________________________
flatten (Flatten)            (32, 2592)                0         
_________________________________________________________________
dense (Dense)                (32, 64)                  165952    
_________________________________________________________________
activation_2 (Activation)    (32, 64)                  0         
_________________________________________________________________
dense_1 (Dense)              (32, 32)                  2080      
_________________________________________________________________
activation_3 (Activation)    (32, 32)                  0         
_________________________________________________________________
output (Dense)               (32, 5)                   165       
_________________________________________________________________
activation_4 (Activation)    (32, 5)                   0         
=================================================================
Total params: 172,997
Trainable params: 172,997
Non-trainable params: 0
_________________________________________________________________
None
85/85 [==============================] - 2s 19ms/step - loss: 0.4518 - cat_acc: 0.9029
test: 0.9029411673545837
218/218 [==============================] - 5s 23ms/step - loss: 0.1073 - cat_acc: 0.9713
…
