…
213/213 [==============================] - 40s 189ms/step - loss: 2.6141e-04 - cat_acc: 1.0000 - val_loss: 0.6872 - val_cat_acc: 0.8958
Epoch 31/100
212/213 [============================>.] - ETA: 0s - loss: 2.2740e-04 - cat_acc: 1.0000Restoring model weights from the end of the best epoch.
213/213 [==============================] - 40s 188ms/step - loss: 2.2809e-04 - cat_acc: 1.0000 - val_loss: 0.6979 - val_cat_acc: 0.9010
Epoch 00031: early stopping
Model: "volcanet-cnn"
_________________________________________________________________
Layer (type)                 Output Shape              Param #   
=================================================================
conv2d (Conv2D)              (32, 108, 108, 16)        160       
_________________________________________________________________
activation (Activation)      (32, 108, 108, 16)        0         
_________________________________________________________________
max_pooling2d (MaxPooling2D) (32, 54, 54, 16)          0         
_________________________________________________________________
conv2d_1 (Conv2D)            (32, 52, 52, 32)          4640      
_________________________________________________________________
activation_1 (Activation)    (32, 52, 52, 32)          0         
_________________________________________________________________
max_pooling2d_1 (MaxPooling2 (32, 26, 26, 32)          0         
_________________________________________________________________
flatten (Flatten)            (32, 21632)               0         
_________________________________________________________________
dense (Dense)                (32, 64)                  1384512   
_________________________________________________________________
activation_2 (Activation)    (32, 64)                  0         
_________________________________________________________________
dense_1 (Dense)              (32, 32)                  2080      
_________________________________________________________________
activation_3 (Activation)    (32, 32)                  0         
_________________________________________________________________
output (Dense)               (32, 5)                   165       
_________________________________________________________________
activation_4 (Activation)    (32, 5)                   0         
=================================================================
Total params: 1,391,557
Trainable params: 1,391,557
Non-trainable params: 0
_________________________________________________________________
None
85/85 [==============================] - 5s 59ms/step - loss: 0.3359 - cat_acc: 0.8956
test: 0.895588219165802
218/218 [==============================] - 14s 64ms/step - loss: 0.1370 - cat_acc: 0.9484
…
