…
213/213 [==============================] - 41s 193ms/step - loss: 9.4335e-04 - cat_acc: 0.9999 - val_loss: 1.0294 - val_cat_acc: 0.8958
Epoch 42/100
212/213 [============================>.] - ETA: 0s - loss: 3.7643e-04 - cat_acc: 1.0000Restoring model weights from the end of the best epoch.
213/213 [==============================] - 41s 192ms/step - loss: 3.7479e-04 - cat_acc: 1.0000 - val_loss: 1.0278 - val_cat_acc: 0.8906
Epoch 00042: early stopping
Model: "volcanet-cnn"
_________________________________________________________________
Layer (type)                 Output Shape              Param #   
=================================================================
conv2d_2 (Conv2D)            (32, 108, 108, 16)        160       
_________________________________________________________________
activation_5 (Activation)    (32, 108, 108, 16)        0         
_________________________________________________________________
max_pooling2d_2 (MaxPooling2 (32, 54, 54, 16)          0         
_________________________________________________________________
conv2d_3 (Conv2D)            (32, 52, 52, 32)          4640      
_________________________________________________________________
activation_6 (Activation)    (32, 52, 52, 32)          0         
_________________________________________________________________
max_pooling2d_3 (MaxPooling2 (32, 26, 26, 32)          0         
_________________________________________________________________
flatten_1 (Flatten)          (32, 21632)               0         
_________________________________________________________________
dense_2 (Dense)              (32, 64)                  1384512   
_________________________________________________________________
activation_7 (Activation)    (32, 64)                  0         
_________________________________________________________________
dense_3 (Dense)              (32, 32)                  2080      
_________________________________________________________________
activation_8 (Activation)    (32, 32)                  0         
_________________________________________________________________
output (Dense)               (32, 5)                   165       
_________________________________________________________________
activation_9 (Activation)    (32, 5)                   0         
=================================================================
Total params: 1,391,557
Trainable params: 1,391,557
Non-trainable params: 0
_________________________________________________________________
None
85/85 [==============================] - 5s 56ms/step - loss: 0.9976 - cat_acc: 0.8846
test: 0.8845587968826294
218/218 [==============================] - 13s 60ms/step - loss: 0.0243 - cat_acc: 0.9958
…
