…
213/213 [==============================] - 12s 54ms/step - loss: 7.0747e-05 - cat_acc: 1.0000 - val_loss: 1.0354 - val_cat_acc: 0.9427
Epoch 83/100
212/213 [============================>.] - ETA: 0s - loss: 6.4988e-05 - cat_acc: 1.0000Restoring model weights from the end of the best epoch.
213/213 [==============================] - 11s 54ms/step - loss: 6.4918e-05 - cat_acc: 1.0000 - val_loss: 1.0459 - val_cat_acc: 0.9427
Epoch 00083: early stopping
Model: "volcanet-cnn"
_________________________________________________________________
Layer (type)                 Output Shape              Param #   
=================================================================
lambda (Lambda)              (32, 44, 44, 1)           0         
_________________________________________________________________
conv2d_4 (Conv2D)            (32, 42, 42, 16)          160       
_________________________________________________________________
activation_10 (Activation)   (32, 42, 42, 16)          0         
_________________________________________________________________
max_pooling2d_4 (MaxPooling2 (32, 21, 21, 16)          0         
_________________________________________________________________
conv2d_5 (Conv2D)            (32, 19, 19, 32)          4640      
_________________________________________________________________
activation_11 (Activation)   (32, 19, 19, 32)          0         
_________________________________________________________________
max_pooling2d_5 (MaxPooling2 (32, 9, 9, 32)            0         
_________________________________________________________________
flatten_2 (Flatten)          (32, 2592)                0         
_________________________________________________________________
dense_4 (Dense)              (32, 64)                  165952    
_________________________________________________________________
activation_12 (Activation)   (32, 64)                  0         
_________________________________________________________________
dense_5 (Dense)              (32, 32)                  2080      
_________________________________________________________________
activation_13 (Activation)   (32, 32)                  0         
_________________________________________________________________
output (Dense)               (32, 5)                   165       
_________________________________________________________________
activation_14 (Activation)   (32, 5)                   0         
=================================================================
Total params: 172,997
Trainable params: 172,997
Non-trainable params: 0
_________________________________________________________________
None
85/85 [==============================] - 1s 17ms/step - loss: 1.0234 - cat_acc: 0.9029
test: 0.9029411673545837
218/218 [==============================] - 4s 20ms/step - loss: 0.0235 - cat_acc: 0.9983
…
