…
209/209 [==============================] - 11s 52ms/step - loss: 2.9285e-04 - cat_acc: 1.0000 - val_loss: 0.6860 - val_cat_acc: 0.9406
Epoch 86/100
208/209 [============================>.] - ETA: 0s - loss: 2.6444e-04 - cat_acc: 1.0000Restoring model weights from the end of the best epoch.
209/209 [==============================] - 8s 41ms/step - loss: 2.6473e-04 - cat_acc: 1.0000 - val_loss: 0.6905 - val_cat_acc: 0.9344
Epoch 00086: early stopping
Model: "volcanet-cnn"
_________________________________________________________________
Layer (type)                 Output Shape              Param #   
=================================================================
lambda (Lambda)              (32, 44, 44, 1)           0         
_________________________________________________________________
conv2d (Conv2D)              (32, 42, 42, 16)          160       
_________________________________________________________________
activation (Activation)      (32, 42, 42, 16)          0         
_________________________________________________________________
max_pooling2d (MaxPooling2D) (32, 21, 21, 16)          0         
_________________________________________________________________
conv2d_1 (Conv2D)            (32, 19, 19, 32)          4640      
_________________________________________________________________
activation_1 (Activation)    (32, 19, 19, 32)          0         
_________________________________________________________________
max_pooling2d_1 (MaxPooling2 (32, 9, 9, 32)            0         
_________________________________________________________________
flatten (Flatten)            (32, 2592)                0         
_________________________________________________________________
dense (Dense)                (32, 64)                  165952    
_________________________________________________________________
activation_2 (Activation)    (32, 64)                  0         
_________________________________________________________________
dense_1 (Dense)              (32, 32)                  2080      
_________________________________________________________________
activation_3 (Activation)    (32, 32)                  0         
_________________________________________________________________
output (Dense)               (32, 5)                   165       
_________________________________________________________________
activation_4 (Activation)    (32, 5)                   0         
=================================================================
Total params: 172,997
Trainable params: 172,997
Non-trainable params: 0
_________________________________________________________________
None
85/85 [==============================] - 1s 12ms/step - loss: 1.0796 - cat_acc: 0.9037
test: 0.903676450252533
218/218 [==============================] - 3s 15ms/step - loss: 0.0265 - cat_acc: 0.9976
…
